Tests/WebCrawler/chrome/Profile 3/optimization_guide_model_store/20/E6DC4029A1E4B4C1/22219E5A5A6202B4/model.tflite (tflite, 64852 bytes, 5 tensors)

arith.constant f4 [1, 64]
00000000: deac a93e 045f 3cbe fa26 37be 6c23 a13e
00000010: bd64 043e d800 6a3e 373c 22bd 543d 25be
00000020: 9546 36bd 1363 a53d 7c3d 303e 1313 73be
00000030: bdaa 9f3e b6d0 bfbe 02d8 60be 1ec2 ab3c
00000040: 51d1 1f3e 4a1a b6bd 2924 823e 1a89 bb3b
00000050: e7a1 6fbe 3175 6abe 18b8 6e3e 39c3 01be
00000060: 4bab 743e 574e 8e3e 4113 8ebe ff8e 59be
00000070: b3c2 85be b083 afbd 23e7 973e 8e70 37be
00000080: c789 2f3e 0dc9 21be 9a73 c4bc 63ea 983e
00000090: 6773 b33e 4bb4 543e 808e 3a3e e956 743e
000000a0: f535 a83c 5823 10be 2114 92bd b5e4 333e
000000b0: c8f5 6a3e e8c4 a4bd 2878 9abe 918d af3d
000000c0: 4685 85be 424d 2ebe cefe fd3d e3e5 e63e
000000d0: caad e1bd 2323 453d b902 5ebe 4783 903e
000000e0: 3f90 8cbe b165 a93d 2b5e 1d3e dbc0 093e
000000f0: 6a8d 1abe 838c e23c 9e68 a23e f9cb 3b3d
0.331397 -0.1839562 -0.17885962 0.31472337 0.12929054 0.22851884 -0.039608207 -0.16136676
-0.044500906 0.080755375 0.17210954 -0.23737745 0.3118495 -0.3746392 -0.219574 0.020966586
0.15607192 -0.08891733 0.25418213 0.005723131 -0.23401605 -0.22896267 0.23312414 -0.12672128
0.23893468 0.27794144 -0.27749065 -0.21245955 -0.26125106 -0.08570039 0.2966853 -0.1791403
0.17142402 -0.15799351 -0.023980904 0.29866323 0.35048983 0.20771901 0.18218422 0.23861279
0.020533541 -0.14075983 -0.071327455 0.17567714 0.2294532 -0.080453694 -0.30169797 0.085719235
-0.26078242 -0.17021659 0.12402116 0.45097265 -0.11019476 0.048129212 -0.21680726 0.28225157
-0.274538 0.08271349 0.15367953 0.13452475 -0.15093008 0.027654892 0.31720442 0.04584882

arith.constant1 f4 [64, 128]
00000000: 9c47 3dbe dc80 d1bd 50a2 18be 1b4e 183d
00000010: 8efd 02be 35c1 da3d 26a0 ffbd 31d1 d7bd
00000020: 3c5f 773d 3c0c 033d 776a eb3d 0dbc fa3d
00000030: c613 d43d 8289 09bd 62ed 043e 4766 4a3e
00000040: ce70 7d3d a79b 383d 331a 89bd efb9 1abe
00000050: 0cfa 51bd d674 c83d 9a8d e43d 56ce a7bd
00000060: 9df4 c7bd 11b3 2abe 56a7 0b3e a068 123e
00000070: 8fc7 d3bc 1d9f 0dbd 1d5e 4e3d 45db e93d
00000080: 695f 06be e153 b73d b3a9 47be 8231 dcbd
00000090: 763a 173d 1b82 d63d 6bfd 15be b5c2 2c3e
000000a0: 8a44 e33c 5767 bd3d 2fe8 06be 1c53 033e
000000b0: 3d6b 1ebd a433 643d b523 4fbe 3091 34be
000000c0: 0758 f6bc f948 b03d 1fee 983c eaec 01be
000000d0: 18f8 a93d a3d0 0abe 5052 c73d 31aa 0cbe
000000e0: f8e6 43be 3512 9a3d 90e7 a4bc 417b 2f3d
000000f0: 47d2 e4bd b5a9 253e ad8e 47be d533 38be
00000100: ee79 fe3d ee01 83bd c589 a53d 2cbc 7dbe
00000110: 8df6 74bd 6d6f 8cbd 9e22 2e3e 25be 8e3b
00000120: e119 ae3d bfa8 03be 81dd d1bd 04d9 0b3e
00000130: ceb9 eb3d e71d e73d a7ea 203e 1377 20bd
00000140: cacf 043e e359 eb3d 94e3 0ebe 37f2 ebbd
00000150: 4363 99bd 4401 dfbc cad7 293e 1183 613d
00000160: 403b 043e b276 8ebc 8223 083e 6c65 9abd
00000170: 0f48 8fbd a241 a1bd c06a 2bbd 1792 103e
00000180: d8a9 ca3c 1b08 bb3d df4e 35bd 2cb2 95bc
00000190: 0d94 45be f9b1 29bc 2ac9 2c3e cfb8 8ebd
000001a0: 0d30 f13c d972 503d 4923 7a39 76cf 3a3e
000001b0: 0b2b 56be 0ac7 ddbd e1c7 bc3d 1d86 843d
000001c0: 1acc 153e aa80 39be cb97 fb3d dc60 8cbd
000001d0: f2c6 c63d 5345 64be 203f 093e c20c 983d
000001e0: 5bda 32be 809b e63c 8a50 84bd a842 10be
000001f0: 4c16 b0bd 9097 833d 9983 ef3d fb02 89bd
00000200: 63c7 143e 0775 d73d a44b d93d a75e 2ebc
00000210: e1b4 973c 4e64 aabc a783 94bd e8cd db3d
00000220: eab6 90bd 8856 ba3d 8e97 e43b 2b02 1a3e
00000230: 12ea a6bd 53ff 0abe b265 93bd b19a 40be
00000240: de5c bf3d fc21 493d 0715 20bd 367b 843d
00000250: f5f5 3abe 9f22 96bd 539e 063e 61ae 273e
00000260: 6497 673d 57bd 413d 9d8f 76bd cfc6 59bd
00000270: 60cc 4f3d ceb5 843c 20d4 d13d f099 0d3e
00000280: 0798 083e 36b4 593c 5522 d13d e2c7 253e
00000290: 963e babd dcd5 c63d 8579 26bd 2d2b 18bd
000002a0: 9654 30be a1a8 c2bd b9dc 233e a88a ae3d
000002b0: 51cf e43d b3c7 d2bd 9539 bdbc 63f9 58bd
000002c0: b145 863b a6fd 0ebe 67cd f93d 6587 2ebc
000002d0: 0d7e 953d 44cb 143d 5cc8 af3d 755b 88bd
000002e0: 046e 873d d9be a43d 8c24 cebd e315 09be
000002f0: 5df9 81be 2efa 1bbd 915b 8abd c05f 013c
00000300: 3f6d 0dbe 58e8 08be 89e1 113e 9f90 23be
00000310: 8603 393d 2407 a0bd f105 77bd 4297 0b3b
00000320: 3c1e 28be 2a2d c3bc fdc4 fdbc 21d9 063e
00000330: 8faf 8ebd 24d2 28be 9e79 dc3d de73 c0bd
00000340: 0587 3dbe d73f b3bd 4349 153d 2de6 823c
00000350: fefa 75bb 7cc0 ea3d 9f92 ca3c 2726 fdbd
00000360: ddc5 243e 83c5 0dbe 70a1 d5bd fede 313e
00000370: 381e eb3d 2ac2 463e 6e1c b03d aaaa 9dbb
00000380: faa3 24be 369b 89bd ed49 3abe 918f fc3c
00000390: 570a 50bd e821 7abd f37c ff3d 65b1 5b3d
000003a0: e21f 85bd 0ab8 983d 7f57 2a3d 552a 873d
000003b0: a61b 043d 26ca 163d e955 0f3e e36f 043e
000003c0: dab4 213d cab6 f0bb 256b 453e 09a1 ef3d
000003d0: 64a3 013e 8090 b63c ab9a 34be 045e fabc
000003e0: 786a c03d ddf3 963d aee0 86bd 04d8 943d
000003f0: 1de6 cbbd c934 6a3d 0c89 47be ac42 c2bc
-0.18484348 -0.10229656 -0.14905667 0.037183862 -0.12792036 0.106813826 -0.12481718 -0.10537947
0.060393557 0.03199409 0.11494916 0.12242899 0.10355334 -0.033578403 0.1298118 0.19765578
0.061875157 0.045070317 -0.0669445 -0.1510999 -0.051263854 0.0978791 0.11159821 -0.08193652
-0.09763453 -0.16669871 0.13638052 0.14297724 -0.025851993 -0.03457557 0.050382722 0.114187755
-0.13122334 0.089515455 -0.19498329 -0.1075163 0.036920987 0.104740344 -0.14647453 0.1687115
0.027742643 0.09248226 -0.13174509 0.12824672 -0.03867649 0.05571331 -0.20228465 -0.1763351
-0.030071272 0.086076684 0.018668232 -0.12688032 0.08299273 -0.13556151 0.09732497 -0.13736798
-0.19131076 0.07523004 -0.020129949 0.042842153 -0.1117292 0.1617802 -0.1948802 -0.17988522
0.124256 -0.063968524 0.08082918 -0.24778813 -0.05980544 -0.0685719 0.17005393 0.004356163
0.0850103 -0.1285734 -0.10247327 0.13657004 0.11510049 0.11285 0.15714513 -0.039176058
0.1296989 0.11491754 -0.13954002 -0.11520808 -0.07489636 -0.027222283 0.16586223 0.055056635
0.12913227 -0.017390583 0.13294795 -0.07538876 -0.06996166 -0.078738466 -0.04184985 0.14118229
0.024739191 0.09132405 -0.04426467 -0.018273436 -0.19294758 -0.010357373 0.16873613 -0.06968843
0.029441858 0.050890777 0.00023855003 0.18243203 -0.20914857 -0.10828979 0.092178114 0.064708926
0.1462864 -0.18115488 0.122848116 -0.06854412 0.097059146 -0.2229207 0.13402987 0.07424308
-0.17466109 0.02815032 -0.06460674 -0.14087927 -0.08598003 0.06425393 0.11695022 -0.066900216
0.14529185 0.10520368 0.106101304 -0.010642684 0.018518867 -0.020799782 -0.07251673 0.10732633
-0.07066138 0.09098536 0.0069760745 0.1503989 -0.08150114 -0.13573961 -0.07197131 -0.1880901
0.09343885 0.049104676 -0.039082553 0.06468813 -0.18257888 -0.07330822 0.13146333 0.16375114
0.05654086 0.04729971 -0.060195554 -0.053168114 0.050732017 0.016199972 0.10245538 0.13828254
0.13339244 0.013287595 0.102116264 0.1618953 -0.090939686 0.09708759 -0.040643234 -0.03715055
-0.17219767 -0.0950482 0.16002168 0.0852254 0.11172355 -0.10291996 -0.023098746 -0.05297221
0.0040976633 -0.13963947 0.121973805 -0.010652398 0.07299433 0.03632666 0.085831374 -0.06658069
0.06612781 0.08044214 -0.100655645 -0.13387255 -0.25385562 -0.038080387 -0.06755746 0.007896364
-0.13811205 -0.13369882 0.14246191 -0.15973137 0.045169376 -0.07813862 -0.0603084 0.0021299873
-0.16417783 -0.023825247 -0.03097772 0.13168766 -0.06967079 -0.16486412 0.10765384 -0.093971
-0.18508537 -0.08752411 0.03644682 0.015978897 -0.0037533636 0.11462495 0.024728118 -0.123607926
0.16091104 -0.13844876 -0.104311824 0.17370221 0.11480373 0.19410005 0.085991725 -0.0048116045
-0.16078177 -0.06719057 -0.18192263 0.030830177 -0.05079111 -0.06106749 0.12475004 0.053635973
-0.06500222 0.07456978 0.04158735 0.06599871 0.03225293 0.036813878 0.13997616 0.12933306
0.039479114 -0.007346009 0.19279154 0.11700637 0.12659985 0.0222857 -0.17637126 -0.030562408
0.09395307 0.07370732 -0.06585823 0.07267764 -0.09956 0.057179246 -0.19485873 -0.023713432

arith.constant2 f4 [128, 12]
00000000: 83e2 3abe c774 623d 1d03 003e cf4d 483e
00000010: 0f6c 2fbc d100 acbd e17b cf3d e2f3 9b3c
00000020: 1cf2 dfbb 3db4 85bd 45c1 9fba 2496 223e
00000030: fe9f 02bd cce3 8ebd d88d 703d 22fa 653d
00000040: 9c1e 96bd 522c 75bc d45e e1bd 4efe 303e
00000050: e3da 373c 796d d33d af41 bbbd b1b5 1f3e
00000060: 2eff 1dbd 99a1 1cbe 271f 163e 8a24 963c
00000070: 5cef eb3d 1a16 38be d58a 16bd 6d91 efbd
00000080: 184a 06bd 0b4a 5e3d 9212 043e b534 adbd
00000090: 1be4 2abc 6749 7ebe 467f 2f3e 754d dd3c
000000a0: f0ff f73d 2267 bd3d 959c 98bd 9772 ff3d
000000b0: 0ee9 3abe c6ed ae3d 77da cf3d 3d87 94bd
000000c0: c5ab 3f3d 1b44 31be 5929 2cbe c117 a6bd
000000d0: f852 02be 729c 343e b88f 913a 81f3 0bbe
000000e0: ff28 1d3e fea4 403e e22e a1bd 0058 513e
000000f0: f240 263e 259d 973d 92e8 78be 003f aa3d
00000100: 8770 cd3d bca8 aebd af93 5fbe 7b51 9fbd
00000110: ef3f 8f3c d34d 5b3d 01bc fa3c 1203 bfbd
00000120: 4f9c 9e3d eb1d 513c 193c 543d 90e1 9e3d
00000130: ecc4 ebbc f606 b7bd aa88 db3d 707c 713d
00000140: e365 6dbe 18d4 07bc 7a0d 5f3d 3174 623e
00000150: 763e edbd c643 babd 0cc1 bfbd 9ae1 d83d
00000160: 26ac 6ebd 1744 48be fe6e ecbd 4cf6 49be
00000170: 168f bb3d 4124 fd3b 7b94 c1bd e751 00be
00000180: cbbf 2e3d 9187 acbd 614c 803e 4dcc 463d
00000190: 153b e1bc dd24 143e 44c0 5d3c 6e16 1fbd
000001a0: b9b8 cebc 1b4b 283e ac94 28bc ab37 4cbe
000001b0: 58f0 373e 5249 503b ad6c 0e3e cc35 bd3d
000001c0: ccec 00be 3f07 203e 4e2d 113e bbe5 8ebd
000001d0: 5dd7 d43d ed5f 4b3e cd5d 77be 59cc c6bd
000001e0: 6256 17be 02d6 0a3e 558d 013e 6fe0 d53d
000001f0: f6d0 6a3d af66 9f3d 9046 95bd 1971 e93d
00000200: 43d5 19bd 1dae 1f3e a175 ebbd 4f6b 43be
00000210: 41b9 eebd 4895 41be b917 46be 89c2 243e
00000220: abd8 223e 4337 413e 144d a4bb d70b fc3d
00000230: a43e 77be 39e7 873a c87e 1ebe e838 103e
00000240: 2d90 513d e4a2 9c3c d088 0bbe 540b d4bd
00000250: 29f5 a1bd f8cd 00be e95c 593e aa3f 28bd
00000260: 1732 fd3b 529e d0bd 1790 a0bd 18a3 83bd
00000270: f6f8 42bd 9836 30be e5a7 11be d19d 1d3d
00000280: f25b 72bc 66f0 6cbc a79f 0cbe af69 1a3d
00000290: 6589 92be 13be bcbb 1e6a 88bd df7f f6bd
000002a0: 7341 09be 7589 d8bd 4c4e dabd 85e7 393e
000002b0: 0098 23bd 8db9 9fbd 3f45 33bd 429d 22be
000002c0: 3577 8abd f8a9 44be 6991 583d c4c3 153b
000002d0: 4a75 2dbd c5b2 aa3c 1572 35be bffa 683e
000002e0: bf4b e93d d606 133e 759f e7bd 4060 f93b
000002f0: d441 d43d 088a 3cbd f561 fb3d 4a95 1b3e
00000300: 80a1 573d eb56 4dbc b60c 5dbe de88 fbbd
00000310: afad 703d 6ac1 67bd 15e8 53bd 86f0 353e
00000320: 8675 493a b5d5 193c 50e2 4bbd e82a 873e
00000330: 25cf 0f3e 944a 41bc ff13 cabd c7e7 fa3d
00000340: f0d8 1d3e 8655 fcbd 1bfe 043e 7ac0 c53c
00000350: c8ed 2d3d e32b 773d 2746 dbbc 578b ab3d
00000360: dd6e c3bb 8fd9 96bd 59ac dc3d ce01 3e3d
00000370: 6acb 17be 75dd 3c3e 5fe4 933b ebde b33d
00000380: 5846 62bc f491 023e aacc e6bd e893 06be
00000390: 8821 b33b 1786 853d c8ce b83d 244c 56bc
000003a0: be43 4c3e 775f a4bd 5afa 353e 9fea b93d
000003b0: 7a1c 48be c18f cebd 3f52 0ebd 7896 2cbe
000003c0: 43ec e9bd b55e d7bd d3cc 4ebe b2f9 33bd
000003d0: 2da9 193d 9ed5 5e3d 36cb 2dbe c2db 403d
000003e0: c17a f2bd 295a 5c3e 94ab c8bb 79dd 7a3e
000003f0: 8156 61be 805c ee3d 0948 093e 9dc4 acbd
-0.1825047 0.05528715 0.12501188 0.19560932 -0.0107069155 -0.08398593 0.1013105 0.01903719
-0.0068342816 -0.06528518 -0.0012188336 0.15877587 -0.03189086 -0.069770426 0.058729023 0.05614675
-0.07330057 -0.01496418 -0.11004415 0.1728451 0.01122162 0.103236146 -0.091433875 0.15596654
-0.038573436 -0.1529602 0.14660321 0.01832797 0.115202636 -0.17977181 -0.036753494 -0.1169766
-0.032785505 0.05426983 0.12897709 -0.08457319 -0.010430361 -0.24832688 0.17138395 0.027014473
0.12109363 0.09248187 -0.07451741 0.12473028 -0.18252966 0.085414454 0.10149091 -0.07252357
0.04679467 -0.17311136 -0.16812648 -0.081099994 -0.12726963 0.17637804 0.0011105454 -0.13667108
0.1534767 0.1881294 -0.0787027 0.20443726 0.16235712 0.0740302 -0.24307469 0.083127975
0.100312285 -0.08528277 -0.2183368 -0.07779213 0.01748654 0.053541016 0.030607225 -0.093267575
0.07744657 0.012763481 0.051815126 0.077578664 -0.028780423 -0.089368746 0.10719426 0.058956563
-0.23183398 -0.008290313 0.05445621 0.22114636 -0.11584179 -0.09094958 -0.09362993 0.10589905
-0.058269642 -0.19557224 -0.115446076 -0.19722861 0.09158151 0.007725269 -0.094521485 -0.12531243
0.042663377 -0.08424295 0.25058272 0.04853468 -0.027493993 0.14467187 0.013534609 -0.03883975
-0.025234567 0.164349 -0.010289352 -0.1994311 0.17962778 0.0031781984 0.13908644 0.092387766
-0.12590331 0.15627764 0.14177439 -0.06977411 0.1039264 0.19860812 -0.24156876 -0.09706945
-0.14779046 0.135582 0.1265157 0.10443198 0.057328187 0.07783257 -0.07288849 0.11398525
-0.037556898 0.15593763 -0.11497045 -0.19083904 -0.11656428 -0.18904603 -0.19344987 0.16089834
0.15902965 0.18868737 -0.0050140712 0.12306946 -0.24144989 0.0010368592 -0.1547805 0.14084208
0.051162887 0.019120641 -0.13626409 -0.10353723 -0.07908089 -0.12578571 0.21226849 -0.04107634
0.0077269184 -0.10186447 -0.07839983 -0.06427592 -0.04760071 -0.17208326 -0.14224203 0.038480584
-0.014792429 -0.014461612 -0.13732778 0.037698444 -0.2862045 -0.0057599633 -0.06660865 -0.12036108
-0.13403873 -0.10573093 -0.10659465 0.18154724 -0.03993988 -0.07799063 -0.04376721 -0.15880302
-0.06761018 -0.19205463 0.05287305 0.002285228 -0.042348184 0.020837197 -0.177193 0.22751902
0.113914005 0.14358076 -0.11309711 0.007610351 0.10364118 -0.046030074 0.12274543 0.15193668
0.052644253 -0.01253293 -0.2158688 -0.12281965 0.058759388 -0.05658094 -0.051735003 0.17767534
0.0007685054 0.009389331 -0.049776375 0.26399922 0.14043863 -0.011797566 -0.09867095 0.12251239
0.15414786 -0.12321 0.12987559 0.024139632 0.042463094 0.060344588 -0.02676685 0.08376186
-0.0059641437 -0.07365715 0.1077506 0.04638844 -0.1482369 0.18443854 0.004513308 0.087827526
-0.013810717 0.12750989 -0.11269505 -0.1314236 0.0054666437 0.06519716 0.090238154 -0.013079677
0.19947717 -0.08026021 0.17771283 0.090779535 -0.19542113 -0.10086013 -0.034746405 -0.16854274
-0.114220165 -0.10516111 -0.20195322 -0.0439393 0.037514854 0.05440294 -0.1697205 0.047084577
-0.1183982 0.21518768 -0.0061239693 0.24498548 -0.22005655 0.11638737 0.13406385 -0.084359385

arith.constant29 f4 [64]
00000000: aea8 cfbd 45b1 97bd eee0 08bc 1d41 0d3d
00000010: c05c 46bc 0a40 9bbd b57c f9bb c3d8 19bb
00000020: 7f84 4fbc 4b7a 29bd dba9 d63c 2829 6fbc
00000030: 8baf f33c 3218 14bd 6b4d f5bb 22c2 d2bc
00000040: 9619 0fbd fe13 23bd 566b be3a d5b7 00bd
00000050: 4185 0abd 627a a5bd 5fa8 33bd 6169 f23b
00000060: 4630 6ebd 9da8 f9ba c74c 80bc e98b 003c
00000070: 79d7 1cbc 67f2 51bc 5ce0 6d3d 63fc 94bc
00000080: 3359 d73b 2461 e5bc 35af 053c e9cb 7b3d
00000090: 59c2 7d3d ffe6 a8bc 3b33 6c3c 5325 44bc
000000a0: 2781 22bd 38b8 96bb 5d14 28bd 1094 093d
000000b0: 4a8a 823c 43c1 1bbd a278 da3c 04ae 893b
000000c0: 8bff 16bd 4b0e 34bd 7d8e 913c c549 bdbd
000000d0: 1242 34bd 2f07 15bc 9b47 64bd 9036 323d
000000e0: eaaa 88bd a113 52bd fb36 3d3d c52b a2bd
000000f0: b4e1 a2bc 6d51 29bd e12d 893c 506d 43bd
-0.10139595 -0.07406858 -0.008354409 0.034485925 -0.012107074 -0.07580574 -0.007613743 -0.0023475147
-0.012665867 -0.041376393 0.02620404 -0.014597215 0.029746791 -0.036155887 -0.0074860356 -0.025727335
-0.03493651 -0.039813988 0.0014527838 -0.031425316 -0.033818487 -0.08079983 -0.043861743 0.007397816
-0.058151506 -0.0019047443 -0.01566161 0.007845857 -0.009572857 -0.012814141 0.058075294 -0.018186754
0.0065719127 -0.028000422 0.008159448 0.06147376 0.061952922 -0.02061796 0.014416511 -0.011971789
-0.03967395 -0.0045995973 -0.041035045 0.03358847 0.015935082 -0.038026106 0.02666885 0.0042016525
-0.0368648 -0.043958943 0.017768139 -0.09242586 -0.044008322 -0.009095951 -0.05573235 0.043509066
-0.06673224 -0.05128825 0.04619501 -0.079185046 -0.019883014 -0.04133742 0.01674551 -0.04771167

arith.constant30 f4 [128]
00000000: dc39 98bc 526c 26bd 0379 0fbe c049 1cbd
00000010: 32ed 1f3d 590c e5bd 2771 4ebd 4d1f 8bbc
00000020: 42e0 5a3c 1c9a be3c 24ff 8cbd ae30 91bc
00000030: 6d86 933b d8e4 cdbc 22e6 77bc 19f0 65bd
00000040: 7e8d b0bc 4efe 57bc 4c25 04bd 1322 1fbd
00000050: 415f 9fbd d1d5 0dbd d28b afbd 26e7 183c
00000060: 4482 a4b9 df5a 983c 367b c4bd c307 8abd
00000070: 2719 a2ba 566e 6bbd 707e 7a3c fc99 9cbc
00000080: 0cfe 2fbc 550b 363c f3a4 613d 756e ac3d
00000090: 8cb1 e6bc 669c 06be 61b5 d2b8 d793 11bc
000000a0: f136 01be 3632 af3d c479 92bd 538d b8bd
000000b0: 2952 623d 60af dfbd 680e 683d e9c6 e03b
000000c0: ae83 fcbd 4e61 35bd c237 dfbd 1a24 b83c
000000d0: 0ce4 86bd 922d b83d 0f20 c83c 9d07 c83b
000000e0: df62 613d 03df 7539 e27d 2ebc 86c2 acbc
000000f0: c732 673d ac10 f2bc f943 8f3c d4c2 623c
00000100: 6246 9dbd abf9 0dbc 833d f2bc cf18 6a3d
00000110: 5ab6 b5bd 016b bc3c 72a2 f4bc f0f5 3ebd
00000120: ab35 1f3c 2ad2 a0bc 3525 09bd 82c8 c0bc
00000130: 0f4f cabc e9b7 ffbc c602 7fbd e706 70bd
00000140: 55e6 b939 c377 a9bc 0837 61bc 6783 983d
00000150: a039 cfbd 0ea3 7abd 722f 84bd 0a1e 64bd
00000160: 2a42 ec3c a2ed ed3b 3f6b cbbd e171 2d3d
00000170: 3dc9 21bd 33f9 23bc 6416 a43c de39 31bd
00000180: 34db 2dbd a9d4 453c 2c19 2e3c 480e 9cbc
00000190: 2a84 10bc d298 f5ba f2ad 91bd 05e1 193c
000001a0: d71e 1ebc 756b 67bb 1a15 89bd 29a7 ffbb
000001b0: 1e21 413c 4836 853c 4119 4abd 22d3 bfbc
000001c0: 1464 7d3d 477f 953d 146c 9ebd eefd 91bd
000001d0: a33c d0bc 4a91 2d3d fb9e 97b9 f197 5c3d
000001e0: 9d07 83bc 212b 6dbc bfa5 06bd c93d 62bd
000001f0: f480 603d 89b5 bdbc 6d1f 79bd fd3b 5ebc
-0.018582277 -0.040630646 -0.14011006 -0.03815627 0.039044566 -0.11183996 -0.05040088 -0.016982699
0.013359131 0.023266844 -0.06884602 -0.017723408 0.004502109 -0.025133535 -0.0151305515 -0.056137178
-0.021551844 -0.01318319 -0.03226213 -0.038850855 -0.0778184 -0.03462774 -0.085715905 0.009332454
-0.00031377573 0.018598018 -0.09593813 -0.06739762 -0.0012367115 -0.05747827 0.015288934 -0.019116394
-0.010741722 0.0111111 0.05508895 0.084195055 -0.028160833 -0.13145599 -0.00010047365 -0.008885345
-0.12618615 0.08554499 -0.07152131 -0.090113305 0.055254135 -0.10922122 0.056654364 0.0068596494
-0.123298034 -0.04428225 -0.10899307 0.022478152 -0.06586465 0.08993067 0.02442935 0.006104423
0.05502593 0.00023448099 -0.01065013 -0.02108885 0.05644491 -0.029548965 0.017488467 0.013840396
-0.0767944 -0.0086654825 -0.029570347 0.057152566 -0.088726714 0.023000242 -0.029862616 -0.046621263
0.009717385 -0.019631464 -0.03348275 -0.02353311 -0.024695901 -0.031215625 -0.062258504 -0.058600333
0.0003545756 -0.02068699 -0.013746031 0.07446938 -0.10118413 -0.061190657 -0.06454362 -0.05569271
0.028840143 0.007260994 -0.09932565 0.04234493 -0.039498556 -0.010008144 0.020030208 -0.043268077
-0.042445377 0.012074628 0.010626119 -0.019049779 -0.008820573 -0.0018737561 -0.071132556 0.009392028
-0.0096509075 -0.0035311852 -0.06693478 -0.0078019095 0.011787681 0.016261235 -0.04934049 -0.023416106
0.06186302 0.07299667 -0.07735458 -0.07128511 -0.025419539 0.042374887 -0.00028919414 0.05385584
-0.015994841 -0.014475615 -0.03287291 -0.055234704 0.05481048 -0.023157852 -0.060820986 -0.013564107
